best_model.pt (torch, 60450 bytes, 19 tensors)

fc1.weight f4 [128, 15]
00000000: 1328 b03d bc69 83be 3cef 203e 3441 b03d
00000010: 74a6 8a3e a1af c8bd 611e 4abe a402 f8bd
00000020: 8afd 413e ca83 b0be 80ec bb3b b66c 393e
00000030: 26ef 9c3e 4a14 65be e757 3f3e 1303 cabc
00000040: 1f48 a13d a0d4 89be 9820 753e 58f3 42be
00000050: 944c 243d 88f0 28be 621f e4bd abb7 733e
00000060: f3f7 733d c83e 5cbe 729c 413d d4e5 cf3e
00000070: 16d3 0bbf bea1 f2bd 7bc1 d13e 6eac 75bd
00000080: 2e67 64be ef6d a6bd af14 21be 1c8f cbbc
00000090: 1032 d2bc c281 a8be 3a4e 0e3f d151 ac3b
000000a0: d09f 3e3d 9b61 6abe c658 e63e f8f4 1bbf
000000b0: f791 6f3d a354 73be 6e0c 6b3e a8f1 053e
000000c0: fd75 07bd 8b26 eabd e65f 90bd 738a 603e
000000d0: 24f5 80bd 748a febe 465d 033c 6043 333c
000000e0: 5b03 b3bc 17b2 38bd d9af 5dbd 7bbc 9dbd
000000f0: a0ff ab3e b417 4fbe b03c 46be 4c7f afbd
00000100: f9b0 2cbe 579d 74be 4fc3 98bb 618f 5f3b
00000110: 4f1e ff3e d956 943e b1ef 4bbe 9d92 b7bd
00000120: e76c 0ebc dd60 2dbe f805 adbd 0391 5d3e
00000130: da75 573e 3a11 3a3e be66 053e 3fcc 0abc
00000140: ce81 83be 1198 56be 5591 17bd 7566 b73e
00000150: 98dd 01be 3c12 8d3e 7a57 f6bd 597d b23e
00000160: c786 23bd f73e df39 2b08 b13e ffd8 65be
00000170: 1ff1 253e 12fd 203e 6cac 0dbe 2b09 7e3e
00000180: 6b0b 4c3e dd23 2abe 767d 803e dda6 c13e
00000190: 7cbc df3b 83f0 51bc 42e3 293d 40dc 83be
000001a0: 3307 ef3d 9666 c33e 9d90 8abe 171a c23d
000001b0: b704 533e 2740 84be c184 d53d 9412 8fbc
000001c0: 02fc 86be 2a8a fc3d a5b9 423d 8e9e 143e
000001d0: 2cf4 003d d264 a83e 268e 7abe b7b0 fabd
000001e0: 04c5 c23e bef1 62bd 7fdc abbd 990f 3e3e
000001f0: 9bdb 2abe c780 813e 4db1 613e 17f3 6fbe
00000200: a2b9 093f 9e1c b1bc fee5 d4bd 508a 27be
00000210: 678a c83e 15cf b9be 565c a6be a003 3d3e
00000220: 653e 55be 1946 383e b2e6 023e b821 5ebe
00000230: 35da 583e a7f6 25bd 0d11 3bbe 9887 d63e
00000240: 4459 d33e c862 e9bd 2bf8 0fbe 9efa 99bd
00000250: 5b38 8cbd 0510 213c 35a8 e2bc c07c 833e
00000260: bc4c 4c3e eb38 8e3c 4458 f23c 7a50 33be
00000270: 808f 4a3d ce9f 183e 6aef 553e e460 25be
00000280: ada4 f43d 8835 f43d 00bd 65bd f633 873d
00000290: ca89 ecbd b453 6d3e 9a4e 56bc 66d9 8b3e
000002a0: 3ae8 8c3e 4b95 d1bd d0e4 c7bd 5fb8 303e
000002b0: c977 1b3e 6af2 a23d 6f31 33be bc5e 533d
000002c0: 1f1e c53d 7c86 3e3e a04a 07be 2df2 a0bc
000002d0: 99ec 543e 7a06 59be 7867 213d d502 253e
000002e0: 113c 8cbe f918 83bc 9848 7b3d 943f bcbb
000002f0: 89ab aa3e 2355 8fbd 3aa5 493e e93e ec3c
00000300: 023f 043e 9d92 063e ecb0 313e cea9 ae3d
00000310: aa65 a5bd d0f7 293e b431 6b3e c104 333e
00000320: 6961 293d cd43 f3bd 3e48 51be b55e b43e
00000330: 3542 893c ac21 6c3e f654 2f3e 6450 d93e
00000340: 31c2 ccbe 99a1 423e 71f5 e7bd 9402 3c3e
00000350: 831f 263e 9161 8bbe cebc 88bc 76c0 83bd
00000360: 3080 d8bd 4716 cd3d 8f6f cfbe ac71 c73d
00000370: 7498 7dbc b312 e93c 47fc b4bc 84a1 283f
00000380: 95af a53e 3933 5f3e d3a4 4f3e 7403 29bd
00000390: 5971 05bc 0e95 413d 60b6 c0bd c0b3 823d
000003a0: b42f 98bd bf47 443c 44ea dbbb 05c5 1c3e
000003b0: 89fb 4c3e 0671 563b be53 3f3e 64cf 20be
000003c0: 4fd0 8a3d 5a8a 85be 49b8 65be 6c98 a1be
000003d0: 57a6 1f3e a0c8 eebd 3851 043e ef9d c53d
000003e0: 28d9 af3e 0b90 1cbe 246c 5f3d f97a 843d
000003f0: 6357 493e 663a a9be a13e 0d3e b2b0 a4bd
0.086013936 -0.25666606 0.1571626 0.086061865 0.2708012 -0.097991236 -0.19738151 -0.12109879
0.18944374 -0.34475547 0.00573498 0.18107876 0.30651206 -0.22371021 0.18685876 -0.024659669
0.07875084 -0.26920033 0.23938215 -0.19038141 0.040112093 -0.16498005 -0.11138798 0.23800533
0.059562635 -0.21508324 0.04726834 0.40605032 -0.54618967 -0.11847256 0.40967926 -0.059978895
-0.22304985 -0.08126437 -0.15730546 -0.024848513 -0.025658637 -0.32911497 0.55588114 0.0052587767
0.046539128 -0.22888796 0.44989604 -0.6092067 0.058488812 -0.23762755 0.2295396 0.13080466
-0.033071507 -0.11433133 -0.07049541 0.21927814 -0.06296757 -0.49715006 0.008017844 0.010941356
-0.021852186 -0.045091715 -0.05412278 -0.077019654 0.33593464 -0.20223886 -0.19359088 -0.08569202
-0.16864385 -0.23888145 -0.0046619545 0.003411256 0.4982781 0.2897251 -0.19915654 -0.08963511
-0.0086929565 -0.16931482 -0.08448404 0.21637349 0.2104105 0.18170634 0.13027474 -0.008471548
-0.2568497 -0.20956446 -0.037003834 0.35820356 -0.12682188 0.27552974 -0.120284036 0.34861258
-0.039923456 0.00042580787 0.34576544 -0.22446059 0.16205262 0.15721539 -0.13835305 0.24808185
0.1992623 -0.16615243 0.2509572 0.3782262 0.006827889 -0.01281369 0.041476496 -0.25753975
0.11671295 0.38164204 -0.27063456 0.094776325 0.20607267 -0.25830194 0.104257114 -0.017464913
-0.26364142 0.1233104 0.047540326 0.14513609 0.03148286 0.3288942 -0.24468288 -0.12240737
0.38040936 -0.055406325 -0.08391666 0.18560638 -0.16685335 0.25293562 0.22040291 -0.23432575
0.5379888 -0.021620091 -0.1039543 -0.16361356 0.39168093 -0.36290804 -0.32492322 0.18458414
-0.20824583 0.1799549 0.12783316 -0.2169255 0.2117699 -0.04051843 -0.18268223 0.41900325
0.41279042 -0.11395794 -0.14059512 -0.075185046 -0.068466865 0.0098304795 -0.027668098 0.25681114
0.19951147 0.017361125 0.029583104 -0.17511168 0.04945326 0.1490471 0.2089211 -0.16150242
0.11945472 0.11924273 -0.056088448 0.06601708 -0.11549719 0.23176461 -0.0130802635 0.273143
0.27520925 -0.102335535 -0.097604394 0.17257832 0.15182413 0.07956393 -0.17499326 0.051604018
0.09624886 0.18605989 -0.13212061 -0.019646728 0.2079338 -0.21193877 0.039405316 0.16114362
-0.27389577 -0.016003119 0.061348528 -0.005744884 0.33333996 -0.069986604 0.19691935 0.028838592
0.1291466 0.13141866 0.17352647 0.085284814 -0.080760315 0.16598439 0.22968179 0.17482282
0.041352663 -0.11878166 -0.20437714 0.35228506 0.016755203 0.2305972 0.17122254 0.42444146
-0.39991906 0.19006957 -0.11326111 0.18360358 0.16222958 -0.27222875 -0.016691592 -0.064331934
-0.10571325 0.10014015 -0.405148 0.09738478 -0.015478242 0.0284513 -0.022092951 0.65871453
0.3236052 0.21796884 0.20277719 -0.04126306 -0.0081447 0.04726129 -0.09409785 0.06381941
-0.07430974 0.011979996 -0.0067112762 0.15309532 0.20017828 0.0032721176 0.18684289 -0.15704113
0.06778013 -0.26082116 -0.2243358 -0.315616 0.15590797 -0.1165936 0.12921607 0.09649264
0.34345365 -0.15289323 0.05454649 0.06468768 0.19662242 -0.33052367 0.13793422 -0.080415145

fc1.bias f4 [128]
00000000: 03c0 723e 0b9c 63be d0c3 0e3c 84a5 29be
00000010: 572e 693e c15c 143e 65b3 2bbe 2cf7 503e
00000020: 1a85 e73c 07d1 0cbe 14e0 0abe bc07 08be
00000030: 94b9 f7bd 1802 0e3e cb25 3bbe 48e6 0f3e
00000040: 1500 21be f052 1cbe 4f3b 4fbe 20ea 5d3e
00000050: 43c0 b33c de0a 6dbe 1aab 823e bb02 843e
00000060: 72f0 59be 824b adba 4e4e 103e 68f8 d63d
00000070: eadb 203d 78b2 24be 225a 52be d382 35be
00000080: db1a 18be cc69 4a3e 4aa3 df3d 3506 73be
00000090: feea 32be 39b9 7bbd 5b67 29be 5ff9 3a3e
000000a0: 19cf 4fbe 64d9 c53d 9a3f a2bd 7588 d7bb
000000b0: c7b7 933c c79f 733b 175a a53d 9222 83be
000000c0: cc03 7b3e 8627 30be f92b 52be 2a2f 803e
000000d0: 31b1 133e 5b0c 0ebe 2497 2ebe 2741 833e
000000e0: ebbe 41be c07d 05be f68e b5bd 5353 a73d
000000f0: 0cfb 2b3e 726d 1c3e 74cb f6bd ca27 4b3d
00000100: 9b01 823d 107c 7e3e da43 0bbd e52f 3dbe
00000110: a23b 70be 6163 eabd 6800 973d 7f63 14bd
00000120: 5e7d ae3d ec8b 6dbe 0f23 a8bd 5cf3 32be
00000130: 6fb7 79be 9951 a5bd 5476 073e 18c0 88be
00000140: 877f 4c3a d831 52bc aa43 b0bd 16e1 97bc
00000150: 59d2 673e 9f91 42be 2f20 48be 9ea7 9bbd
00000160: 35ce 11bd 8b2f ac3d 4817 6dbe e542 eb3d
00000170: 9e80 94bb f5d6 783e 92a4 0ebd 7898 203e
00000180: 8d20 803e 128c 83be 9976 32bd 07d0 d73d
00000190: bc74 be3d 61dc 623d 4b7c 7b3e 692c 633e
000001a0: 5b89 86bd 567d 4a3e 0542 343e f6af 773e
000001b0: 70f4 5fbe 61d2 95bd 1870 5abe e440 6f3e
000001c0: 5eb7 d3bc ff50 4fbe f8af 96bd 83ff 6b3e
000001d0: c5e0 84bc 38e5 2fbe 7f62 03be fcf3 783e
000001e0: 9d46 afbd a423 6ebe d907 64be 426c a7bd
000001f0: cccb 2b3e 206e 7c3e 25de b43d db9f f83d
0.23706059 -0.22227494 0.0087136775 -0.16567045 0.22771583 0.14488508 -0.16767652 0.20406789
0.02826171 -0.13751613 -0.13562042 -0.132842 -0.12095943 0.13867986 -0.18276136 0.14052689
-0.15722688 -0.15266013 -0.20237468 0.21671343 0.021942263 -0.23148677 0.25521165 0.25783333
-0.21283129 -0.0013221356 0.14092371 0.104965985 0.039272226 -0.16083705 -0.20542195 -0.17725687
-0.14853995 0.19766921 0.10919817 -0.23732837 -0.17472455 -0.06145594 -0.16543333 0.1825919
-0.20293845 0.096606046 -0.07922287 -0.0065775462 0.018031968 0.0037174092 0.08073824 -0.25612313
0.24513167 -0.17202577 -0.20524587 0.25035983 0.14423062 -0.138719 -0.17049843 0.25635645
-0.18920486 -0.13036251 -0.08865158 0.0817019 0.16794986 0.15276125 -0.12050524 0.049598493
0.063479625 0.24852014 -0.034000255 -0.18475302 -0.23460248 -0.11444736 0.07373124 -0.0362277
0.08520006 -0.23197907 -0.08209812 -0.17475647 -0.2438638 -0.08072204 0.13228732 -0.26709056
0.00078009855 -0.0128292665 -0.08606656 -0.018539947 0.22638835 -0.19000863 -0.19543527 -0.0760033
-0.035597045 0.084075056 -0.23153412 0.114873685 -0.004531934 0.2430075 -0.034824915 0.15683162
0.25024834 -0.25692803 -0.043570135 0.10537725 0.09299609 0.05538595 0.24559133 0.2218491
-0.06569167 0.19774374 0.1760331 0.24188218 -0.2187059 -0.07315517 -0.21331823 0.23364598
-0.025844272 -0.20245741 -0.07357782 0.23046689 -0.01622046 -0.17177284 -0.12830542 0.24311823
-0.0855839 -0.23255783 -0.22268619 -0.081749454 0.16776961 0.24651384 0.08831433 0.12139865

bn1.weight f4 [128]
00000000: 5d48 7a3f e786 713f fe5c 7b3f 1b0b 7e3f
00000010: 35fc 7a3f 8f7c 6e3f 17d0 863f 5cd5 743f
00000020: 4c7b 803f 03dc 7c3f 8d81 6c3f 81d0 7e3f
00000030: 8e0e 6b3f 4506 6f3f 7a92 863f d6d6 713f
00000040: 4e5c 783f 1243 703f d445 6c3f 78b7 903f
00000050: 39cf 6f3f 8d22 863f 6001 7c3f ede2 743f
00000060: 4cca 7b3f 9b0b 843f 9448 703f 1503 833f
00000070: 3313 6d3f 847c 763f 1694 763f 036e 6b3f
00000080: 8426 7a3f 607a 773f 6c56 853f ede8 713f
00000090: 3d9e 743f 3164 8a3f 0642 863f ad68 7e3f
000000a0: 2a5f 6f3f f3de 933f 7fb1 7e3f 3dcd 6f3f
000000b0: ce58 673f 7036 6d3f 2ad5 713f dacd 893f
000000c0: 228a 913f 56a0 683f 23eb 8d3f 7590 773f
000000d0: a84f 7e3f 253d 733f 522a 883f f434 793f
000000e0: 8e0e 763f a0cb 7d3f cf26 6b3f a18a 7a3f
000000f0: 527e 823f d62a 6a3f 0632 713f 3720 723f
00000100: 5d8e 663f a56a 843f 88c6 683f f9aa 783f
00000110: 14d6 6d3f 9b2f 713f 0e60 743f de4e 823f
00000120: ffc4 5d3f c4e4 8a3f 49e6 783f 3f6d 823f
00000130: c510 733f 90d0 7b3f 5741 813f 2b5f 883f
00000140: 0289 713f 19b8 813f 84f2 6f3f 8508 733f
00000150: df03 793f 4c62 833f dded 893f 8777 813f
00000160: 29a8 7e3f 8d22 6b3f 15f2 8e3f 0e5d 713f
00000170: 6028 783f 24d4 763f adf7 6d3f 7ce3 7b3f
00000180: 3648 703f 94e0 8a3f 20f8 733f 19ff 893f
00000190: dbd5 7d3f 1731 783f 1967 803f 3e58 763f
000001a0: f80b 7d3f 5f6a 6e3f 2aaa 8c3f 2d11 613f
000001b0: 209a 753f 3fe3 813f bb7d 7c3f 86b8 853f
000001c0: fb15 793f 4a36 7e3f 7334 713f 5ab7 843f
000001d0: e6fa 7c3f 5c66 753f 66c6 763f a975 833f
000001e0: 7253 763f 7f67 7d3f 7d58 8b3f 741e 853f
000001f0: 8a76 7c3f cf63 8c3f dc91 6b3f c468 863f
0.9776667 0.9434647 0.9818877 0.99235696 0.9804109 0.9315881 1.0532254 0.9563806
1.0037627 0.9877321 0.9238518 0.995369 0.91819084 0.9336894 1.0513451 0.9446844
0.97015846 0.9385234 0.9229405 1.130599 0.9367557 1.0479294 0.984396 0.9565876
0.98355556 1.0316042 0.93860745 1.0235316 0.9260742 0.96283746 0.9631971 0.9196474
0.9771502 0.96671104 1.0416999 0.9449604 0.9555395 1.0811826 1.0488899 0.9937847
0.93504584 1.1552414 0.9948959 0.93672544 0.9036988 0.9266119 0.9446589 1.0765946
1.137028 0.90869653 1.1087383 0.967048 0.99340296 0.95015174 1.0637915 0.97346425
0.9611596 0.9913883 0.9185609 0.9786778 1.01948 0.9147161 0.94216955 0.94580406
0.9006098 1.0345045 0.90927935 0.97135884 0.9290478 0.94213265 0.9545907 1.0180318
0.8662872 1.0851064 0.9722639 1.0189589 0.94947463 0.98365116 1.0098065 1.0654043
0.9434968 1.0134307 0.93729424 0.94934875 0.9727153 1.0264373 1.0775715 1.0114602
0.9947534 0.91849595 1.1167628 0.94282615 0.9693661 0.9641745 0.9295605 0.9839399
0.93860185 1.0849786 0.95300484 1.0780975 0.9915444 0.96949905 1.0031463 0.96228397
0.9884639 0.9313106 1.098943 0.87916833 0.959383 1.0147475 0.9862935 1.0446937
0.97299165 0.9930159 0.94220656 1.0368454 0.9882034 0.95859313 0.9639648 1.0270282
0.9622108 0.9898605 1.088638 1.0399919 0.98618376 1.0967959 0.9201944 1.0500722

bn1.bias f4 [128]
00000000: d0bf b4bd 4f51 4dbd ee81 61bd 854e 60bd
00000010: 93e2 98bc beaa 01be 073f 483e 7f31 ebbd
00000020: 9386 2abd b29e 57bd e24d e8bd 7041 acbd
00000030: 216c d0bd 37a5 c9bd 3ea7 bcbc 6752 97bc
00000040: 47e2 b0bd 6758 9e3d 7556 14be 4641 0d3d
00000050: fb55 9ebd 0499 d63b 4528 4ebd f27d 69bd
00000060: d569 d7bd 5b30 7a3d 1a55 d4bd fc0f 0d3d
00000070: 26b6 02be b469 6dbd c474 eabd 6f44 07be
00000080: 621d 9cbd ab58 c3bc cffb b23d dd02 66bc
00000090: 2aff 15bd b89d 283e 3fb5 a4bd f986 0cbd
000000a0: d725 dabd 6915 df3d c5bf cc3c 35ee 62ba
000000b0: ff77 94bd 43b9 40bd e3d0 a2bd 80b3 b63d
000000c0: b3d6 83bd d1eb 62bc 06d8 ba3d 6301 f1bc
000000d0: e80e 8dbd 08bf e7bd 4cde 3a3b 6f30 4f3c
000000e0: 165e 9bbd 46bf a5bc 8ec8 9ebd 7065 08bd
000000f0: 8aec fbbc 628c 90bd b85a fcbc c2bf e5bd
00000100: e827 c0bd 2b9c 28bd 1ccb a9bd 447d b9bd
00000110: 9476 8dbd b3f6 61bd f907 b6bd d693 7dbd
00000120: 6d79 0abe 4e1d 8c3d d05d 1b3d 6474 6cbc
00000130: b376 a0bd 127e c83c d4e9 d63b b020 143d
00000140: 9571 ebbd 3b25 3a3d 32fc 9cbd 6174 efbc
00000150: 85c8 babd 5281 72bd 1a9a 7d3d 5c0b 86bd
00000160: cf43 4dbd 1064 c2bd f2c7 d13d 22e1 b1bc
00000170: 0dd2 c93c 0fd5 aebc c63a afbc 9f5e 98bd
00000180: 666f eebd 1199 d3bd e2b0 5cbd 9b7a e43c
00000190: a433 c53c ed96 9fbc 2364 a2bd 7957 f6bd
000001a0: eda4 2fbd b969 b2bd 5bf6 f33d 62ef c8bd
000001b0: 71a6 e8bd 04c0 08bb 01f5 14bb 6ba7 9c3b
000001c0: b811 e2bd f37d 9cbc d3bb a3bd 5718 523d
000001d0: 70bb d6bc 3bd3 bcbd 00c6 52bd 1e0d 5a3d
000001e0: 86e2 b0bd 6ac6 99bd 92f3 153e 312c 04bb
000001f0: 5d71 8cbd e69e 39bd 69ac 0cbd 431f 2f3d
-0.08825648 -0.05012637 -0.05505555 -0.054762382 -0.018662727 -0.12662789 0.19555293 -0.1148405
-0.041632246 -0.052641578 -0.1134298 -0.08410919 -0.10176874 -0.09845965 -0.023028966 -0.01847191
-0.08636909 0.07731705 -0.14486106 0.034486078 -0.07731243 0.0065490026 -0.050331373 -0.057004876
-0.10518233 0.06108127 -0.10367794 0.034439072 -0.12764797 -0.057962134 -0.114480525 -0.13209699
-0.07622792 -0.023845991 0.08739435 -0.014038769 -0.036620297 0.16466415 -0.080423824 -0.034308407
-0.106517486 0.108927555 0.024993787 -0.00086567114 -0.0724945 -0.04705168 -0.07949998 0.08920956
-0.06437435 -0.013850168 0.091232345 -0.029419607 -0.06887609 -0.11315733 0.0028513847 0.012645825
-0.07586305 -0.020232808 -0.077530965 -0.033299863 -0.030752439 -0.07058026 -0.030804977 -0.112182155
-0.093826115 -0.04116456 -0.08290693 -0.09057096 -0.069073826 -0.05516691 -0.088882394 -0.061908565
-0.13522883 0.06841527 0.037931263 -0.014432047 -0.0783514 0.024474178 0.006558636 0.036163986
-0.114962734 0.045445662 -0.0766529 -0.029230298 -0.09120277 -0.05920536 0.06191454 -0.065451354
-0.050113495 -0.09491742 0.10243215 -0.021713797 0.024636293 -0.021341829 -0.02139033 -0.074399225
-0.11642341 -0.103319295 -0.053879626 0.027890494 0.024072476 -0.019481147 -0.07929256 -0.12028403
-0.042881895 -0.08711571 0.11912223 -0.09811284 -0.11359871 -0.0020866403 -0.0022729042 0.0047807
-0.11038536 -0.019103026 -0.07994809 0.051292744 -0.026212424 -0.092199765 -0.05145836 0.053235166
-0.08636956 -0.075085476 0.14643696 -0.0020167942 -0.0685756 -0.045317553 -0.03434411 0.042754423

bn1.running_mean f4 [128]
00000000: f662 0544 6baf d5c3 fa07 a5c3 ead4 4dc3
00000010: d8fb c8c3 8f05 5242 d447 8ac3 7364 fbc3
00000020: 5369 b4c3 b215 e4c3 28d2 da42 4786 33c3
00000030: b744 03c4 fbdd c743 d473 77c1 7498 0743
00000040: 73d2 8f43 5e7f 0b44 87aa ccc3 958e 8242
00000050: 8585 33c0 8a6c fdc3 dce4 07c3 7475 e943
00000060: ee2a 45c2 fee6 9c43 afba cec3 a055 00c4
00000070: 529d 98c3 a685 1c43 4ca3 5ac3 b097 8942
00000080: 47c7 7243 f224 03c4 4704 aec3 9234 2442
00000090: 8908 3543 7967 c6c3 e4a7 2044 e99f 15c3
000000a0: 3d99 1443 0350 c4c2 0f50 58c3 56b0 bcc3
000000b0: a000 9c43 f201 c043 dcdc 3243 4add b643
000000c0: 4689 b743 72ab d342 d0bc a1c2 716e bfc3
000000d0: 5a73 97c2 aa6c 7143 13bc 12c4 721e 21c3
000000e0: 3e8a 3542 221e c443 f05f aa43 6488 19c4
000000f0: 72b0 bd41 095d f5c2 b79c c443 8cd1 46c1
00000100: 3e79 75c3 4995 25c4 017f 8343 c616 8242
00000110: 137f bac2 683f c943 ff33 91c2 4b53 2d44
00000120: 1a59 d4c2 7fc1 a843 e387 3b43 50d6 eec3
00000130: 8e7a d8c3 3810 78c3 bff3 4243 9069 8643
00000140: f153 88c2 5cbd 36c3 0e64 8943 2b39 12c3
00000150: 251e 22c3 acac e2c3 f1f0 ce42 cde7 87c3
00000160: 5f61 72c2 b720 4ac3 be23 4ac3 155f c9c0
00000170: aa93 92c1 f543 04c4 ddf0 2dc3 a0a7 8843
00000180: 2989 88c3 6008 b743 7e77 e843 7a94 17c4
00000190: 3aeb 2b43 f45a 9443 65fd d0c3 449a 28c4
000001a0: 3e9f 2443 b78a 2a44 6520 8ac2 8732 a143
000001b0: 8914 0044 2a4c 9843 8171 ea43 980b b2c3
000001c0: 43ba 1743 824b 83c3 d1af b542 3682 8f43
000001d0: 1fbe 4fc3 9f42 f743 57c3 2a43 9703 15c4
000001e0: b594 0f43 7039 8cc3 b1cf e9c3 e561 0144
000001f0: a6e6 73c2 ecae e3c3 c36d 3343 5f3e c241
533.54626 -427.37045 -330.06232 -205.8317 -401.96753 52.50543 -276.56116 -502.78476
-360.82285 -456.1695 109.41046 -179.52452 -525.07367 399.73422 -15.465778 135.59552
287.64413 557.9901 -409.33224 65.27848 -2.8050244 -506.84796 -135.89398 466.9176
-49.291924 313.80463 -413.45847 -513.3379 -305.22906 156.52206 -218.63788 68.796265
242.77843 -524.5773 -348.03342 41.05134 181.03334 -396.80838 642.6233 -149.62465
148.59859 -98.15627 -216.31273 -377.37762 312.00488 384.0152 178.86273 365.72882
367.07245 105.834854 -80.868774 -382.86282 -75.725296 241.42447 -586.93866 -161.11893
45.385002 392.2354 340.7495 -614.1311 23.711155 -122.68171 393.22433 -12.426159
-245.4736 -662.3326 262.99222 65.04448 -93.24819 402.49536 -72.601555 693.30145
-106.17403 337.5117 187.5308 -477.67432 -432.95746 -248.06335 194.95213 268.8247
-68.16395 -182.73969 274.78168 -146.22331 -162.11775 -453.349 103.47059 -271.81094
-60.59509 -202.12779 -202.13962 -6.2928567 -18.322102 -529.0618 -173.94087 273.30957
-273.07156 366.06543 464.93353 -606.31995 171.91885 296.71057 -417.97964 -674.4104
164.62204 682.1674 -69.06327 322.39474 512.32086 304.59503 468.88675 -356.09058
151.72758 -262.5899 90.84339 287.01727 -207.74266 494.52048 170.76305 -596.0561
143.58089 -280.44873 -467.6226 517.5296 -60.975243 -455.36658 179.42876 24.280455

bn1.running_var f4 [128]
00000000: c89c 8c41 5e23 0544 303c 9841 8efc 2441
00000010: 1fc7 ee43 a0ab 4f44 4ef3 8540 7921 4643
00000020: d1ca 1543 1f3f 2843 dc51 4543 495d 3742
00000030: 9ad3 cb43 248c 0444 2a3b b440 fe3e 8143
00000040: 83b0 1b42 95ad b043 b025 3d43 f07d 3241
00000050: 4e03 cd43 5194 dd42 0057 0344 7dad 3544
00000060: 4e49 1f41 99a7 b540 6d13 3b43 7bc6 b642
00000070: 9695 d143 284b 0e44 b77c 6e43 2c71 1043
00000080: 99b3 aa43 4c5e 8b43 1dba f140 27d1 1f44
00000090: 1331 fe43 31de c240 a551 de41 cd8c 9241
000000a0: 7c38 3243 f3d7 1841 089e 0542 1b10 4743
000000b0: 625a 6b43 618b 1c43 ed8b b143 46dd 7b41
000000c0: a8cd 0841 b8c1 1b43 204c 0b41 70eb a242
000000d0: 899e f943 ed6f 0e44 6c08 b141 851c 0043
000000e0: bc80 c242 23c7 9441 1029 d042 8466 2c42
000000f0: 27a2 b842 6acf 6643 5472 c743 2142 1c43
00000100: 3f53 5243 f5bf 9c41 6578 8640 52fa a440
00000110: 7a6b 5243 bbfc 7943 ee57 0442 b5ed a941
00000120: e3f0 5143 f7f8 0f41 2a25 e143 1731 1443
00000130: 1c42 3842 c74b da42 c560 8a43 064d ec40
00000140: 0530 5d43 6fd8 8b41 5476 4942 6f31 1d41
00000150: 36cd 8543 7498 5c41 0a35 9440 003f 5241
00000160: 3119 d042 9c6c f943 1196 2e41 a216 3144
00000170: 8c8f 7141 0e58 7741 ef62 0544 dfce 5f43
00000180: a56b 2c44 9e16 0b41 4f53 b843 1bd8 d541
00000190: e8c3 3643 7d9f 8543 cb08 6d42 b50b bd42
000001a0: 162c c843 1444 3443 fabb c540 7c8c 3144
000001b0: 9d14 a243 16b9 f741 26f7 4543 c9b9 fc42
000001c0: d793 0144 24a8 2242 ab6d a343 bda4 b741
000001d0: 6278 a941 77f8 e943 225e 3b42 7d20 8e42
000001e0: d43e 5444 a6f1 9842 609d 1541 3d8a cc41
000001f0: 61b3 9e43 1535 bc41 eb7b 1044 af74 ab41
17.576553 532.5526 19.029388 10.311659 477.55563 830.68164 4.1859503 198.13075
149.79225 168.24657 197.31976 45.8411 407.65314 530.1897 5.632222 258.49213
38.922375 353.3561 189.14722 11.155746 410.02582 110.78968 525.3594 726.71075
9.955397 5.6767087 187.07588 91.38766 419.16864 569.1743 238.48717 144.44208
341.4031 278.7367 7.553969 639.268 508.3834 6.089623 27.789865 18.31875
178.22064 9.552722 33.404327 199.06291 235.35306 156.54445 355.09317 15.741522
8.550209 155.75671 8.706085 81.45984 499.23856 569.74884 22.129112 128.1114
97.251434 18.597235 104.0802 43.100113 92.3167 230.81021 398.8932 156.25832
210.32518 19.593729 4.2021966 5.1555567 210.41983 249.98723 33.08587 21.241068
209.94096 8.998282 450.29034 148.19176 46.06456 109.148 276.756 7.3844023
221.18758 17.48068 50.365555 9.824569 267.6032 13.78722 4.6314745 13.140381
104.0492 498.8485 10.911637 708.35364 15.097546 15.458998 533.54584 223.80809
689.68195 8.693022 368.65085 26.73052 182.76526 267.246 59.258587 94.522865
400.34442 180.26593 6.1791964 710.19507 324.16104 30.965374 197.96542 126.36286
518.31 40.6642 326.85678 22.955439 21.18378 467.94113 46.841927 71.06345
848.9817 76.47197 9.350922 25.5675 317.4014 23.525919 577.9362 21.431974

fc2.weight f4 [64, 128]
00000000: 2cfd 5b3d 01e1 3fbd 34e8 3c3c d7d9 57bb
00000010: 41f6 da3c a464 d13d b1cb d43d b8b3 74bc
00000020: 9875 9e3d fff8 f4ba 8a96 a8bc c1c9 70bc
00000030: 4363 383d f7e6 39bd 3425 00be ac30 38bd
00000040: 4544 bebb 62e4 d1bc 27a2 79bd 2588 773d
00000050: 7e3a 943c 6d4d 98bd af26 873d 7c42 cbbb
00000060: 5df8 9fbd 9924 81bd 7b11 aabd 97f9 4abd
00000070: fc81 3e3d 3970 f93c 645e 263d b170 ac3c
00000080: 6884 3ebd 2a99 713c abe7 5e3d c1ae 483d
00000090: 5d82 a5bc 8b67 b43d 2a92 0fbc 50ce b23c
000000a0: f0ef de3d 14f5 d13d 009a 83bd cd71 c6bc
000000b0: 9f0b 01bc f1c4 de3d cf5f 70bd bd9c 01be
000000c0: a862 17be e9ba 1ebb bede 303e 4433 f13a
000000d0: 0899 553c 89a5 94bd 4036 a73d 5b0d 9e3c
000000e0: 1527 34bd 7ce3 773c 76e0 d73b 20fb 87bc
000000f0: f770 943d 9e5f 1cbd 54de 6cbd be42 c13c
00000100: 4468 92bc c638 d5bc 5e40 df3c 18c9 e8bc
00000110: e3a6 05bd fb47 95bc 1d8c 123d 394b a9bd
00000120: 0d07 49bd 13be 003d 31b2 703d 4c13 46bc
00000130: 836d 08bd 85c6 5b3d 2ea5 8cbc cc80 fcbd
00000140: ff04 873a 6645 be3c 6d41 c3bc 8753 973d
00000150: 04b3 c1bc ce10 b4bd 6a78 ccbc ba6c 17bd
00000160: 110e d33a ba62 8a3d 449c 343e b05c aabb
00000170: a61b 423d d76e 213d 3979 b0bc 10f6 963c
00000180: 6876 e63c 7ec2 863d d646 8e3d 5922 92bd
00000190: 0a44 6b3d 82f6 353d 643a 323d 6530 9b3d
000001a0: 4b31 8fbd 8ba1 73bd 97fc 103e 8bef 863d
000001b0: 765d c03c 3c66 8cbd da53 91bc ee16 70bc
000001c0: b0f4 0cbc 179b 643d 796b 4c3d b1d8 a83c
000001d0: bb53 8c3d 8d23 e03d 9f57 6fbc 95db dc3d
000001e0: bd1a d1bc 2949 213c 8a0a 143e 9c48 08bd
000001f0: 4e04 903d d0e2 bebd fbf7 82bc b333 203d
00000200: 497e 6abd c746 88bc 5062 c0bc 5057 503d
00000210: d0a1 ecbc 39b7 e03a 095a 873d 23bf 62bd
00000220: f4c7 e73c 4486 0dbd b5b2 c83c 3c96 9f3b
00000230: 3911 be3d 36f5 f0bb 5a44 6abd ba5d 40bd
00000240: 4048 e93d 85d0 c53c bed3 253e ddc5 2c3c
00000250: 67a3 4a3d f85e 21bc ebc9 a53d e28b ba3d
00000260: d0e2 a739 abea 8abc 76d9 c93d 9c90 7d3d
00000270: f39d fb3d fcc2 233d 62c5 e13d 5dbf 82bd
00000280: 37a3 ff3c 813a 983d 86ff dcbd f84a a23d
00000290: 368c 29ba 484d a83d a938 b8bc e84c 1f3c
000002a0: 2efe 0a3d 29d9 9ebc 0706 76bd fe16 95bb
000002b0: 43a1 6ebd e12f 803d e4e5 56bd 8e49 b2bd
000002c0: f41f da3b 79d3 93bd 6136 7a3d f276 1ebc
000002d0: d6d2 b33d 5fa7 26bd 03f7 88bd 4e9a 863c
000002e0: b8b1 633d b043 3fbd 8756 87bc f370 17bc
000002f0: ffeb 40bd db6c 353c ec00 163d 94d6 82bd
00000300: 12fe 2a3e c4f9 2d3e 782b b9bd 73ca 3bbd
00000310: 33a6 ca3d 6ea6 bebc 50aa 97bc b17f 2bbd
00000320: 072a 2a3d b445 feb7 2c54 ce3c fc9d cabc
00000330: c473 9abd f783 303d ec38 b03d 8e5a 9f3c
00000340: 9de4 123c 4bb3 963c 0b06 90bd bf10 db3c
00000350: 3aa5 47bb ac9e 1cbc 1342 4dbc 4fba 1e3c
00000360: 3c1d 88bd 6324 b33d 78fd 00be b852 afbc
00000370: c086 9ebc 57af e03c aa13 c43d b503 4d3d
00000380: f6c5 ec3c e50c 753b c1d2 d03d 6582 ca3b
00000390: 429f 05bd cc02 c13c 3e0d c43d fb43 f53d
000003a0: b4d3 823c cf44 1f3d 2df8 9d3c 65f9 593c
000003b0: 2e3a cfba fc98 ab3d cd5b 583b 3f05 933d
000003c0: 7a25 c13d feb5 763c 9821 d93d 0a4e a33b
000003d0: 10c5 85bd 6466 72bc 86c9 263c 27cf ccbc
000003e0: 7bac 733d 3908 373c fca7 293c 6adf 083c
000003f0: 63a8 b93d 5f6c 8b3d 04cc 9f3d e6ce d3bd
0.05370824 -0.04684544 0.011529971 -0.003293624 0.026728751 0.10224274 0.103904136 -0.014935426
0.07737273 -0.0018689929 -0.020579595 -0.014696539 0.04501654 -0.04538628 -0.12514192 -0.044968292
-0.005806478 -0.025621597 -0.060945656 0.060432572 0.018094297 -0.07436643 0.06599175 -0.006202994
-0.078110434 -0.063058086 -0.083041154 -0.049554434 0.04651068 0.03044902 0.04061736 0.02104983
-0.04651299 0.01474599 0.054420155 0.048994783 -0.020203764 0.08808812 -0.008762876 0.021826893
0.10885608 0.10251823 -0.064258575 -0.024224186 -0.007876306 0.10877407 -0.05868512 -0.12657447
-0.14783728 -0.0024220294 0.1727247 0.0018402119 0.013036974 -0.07258136 0.08164644 0.019293478
-0.043982584 0.01512992 0.006588037 -0.016599238 0.07248109 -0.038177125 -0.057829216 0.023591395
-0.017871983 -0.026028048 0.027252372 -0.028416201 -0.03262986 -0.0182228 0.035778154 -0.08266301
-0.04907899 0.03143127 0.058763687 -0.012089562 -0.033307564 0.05365612 -0.017168608 -0.123292536
0.0010301172 0.023226451 -0.023834908 0.073889785 -0.023644932 -0.08792268 -0.024959762 -0.036968924
0.0016102215 0.06757112 0.17637736 -0.0051990375 0.04738965 0.039412346 -0.021542178 0.018427879
0.028132632 0.06580065 0.06947105 -0.071354575 0.057437934 0.04442454 0.043512717 0.0757759
-0.06991824 -0.05948023 0.14158855 0.06588658 0.023482066 -0.06855437 -0.017740179 -0.014653904
-0.00860326 0.055811968 0.04990718 0.020611139 0.06851908 0.10944281 -0.014608293 0.107840694
-0.025525445 0.009844103 0.14457145 -0.03327237 0.07032071 -0.09320605 -0.015987387 0.039111804
-0.05724934 -0.016635312 -0.023484379 0.050864518 -0.028885752 0.0017144448 0.0660897 -0.055358063
0.028293587 -0.034551874 0.024499277 0.0048702043 0.09280629 -0.00735345 -0.05719409 -0.046964385
0.11390734 0.024147281 0.16194054 0.010545221 0.04947224 -0.0098493025 0.080951534 0.09108712
0.0003202171 -0.016957602 0.098559305 0.06190549 0.12285986 0.039980873 0.11023976 -0.06384156
0.031205757 0.07433034 -0.10790925 0.079244554 -0.00064677314 0.08217865 -0.022487955 0.009722926
0.03393381 -0.01939066 -0.060064342 -0.00454986 -0.05825926 0.06259132 -0.052465335 -0.08705436
0.006656641 -0.072180696 0.061087016 -0.009671913 0.08780448 -0.04068696 -0.06687739 0.016431
0.055589408 -0.04669541 -0.016520752 -0.009243238 -0.047100063 0.011073316 0.036621973 -0.06388584
0.16698483 0.1698981 -0.09041494 -0.045847367 0.09894981 -0.02327272 -0.018513829 -0.041869823
0.041543987 -3.0311618e-05 0.02518662 -0.024733536 -0.07541612 0.0430946 0.08604607 0.01945236
0.0089656385 0.01839604 -0.070324026 0.026741384 -0.0030463473 -0.009559315 -0.01252796 0.009687974
-0.06646201 0.087471746 -0.1259669 -0.021401748 -0.019351363 0.027427359 0.09574063 0.050052363
0.028902989 0.003739172 0.10196448 0.006180095 -0.032622583 0.023560904 0.09572838 0.11975857
0.015970089 0.03888398 0.019283378 0.013304089 -0.0015810186 0.08378789 0.0033013702 0.07178735
0.09430976 0.015058039 0.106021106 0.004983668 -0.06531727 -0.01479492 0.010179883 -0.025001122
0.059490662 0.011171394 0.010354992 0.008354047 0.0906532 0.068077795 0.07802585 -0.10342197

fc2.bias f4 [64]
00000000: ee88 d6bc cf42 a63d bfbe fa3c f1e7 783c
00000010: 494e 3e3d 2048 88bb f726 dbbc 746f 2abd
00000020: 045a 453c d4c7 a03c 8e5d 5bbd 34dd 7ebd
00000030: f207 96bd fd8a 663d 6015 aebd 1aca a43d
00000040: 0f0b 1bbd a274 ac3d ac6c 9bbd 367c 74bd
00000050: 445f 8b3d 340a a13d 0194 3f3d b465 003d
00000060: 5e69 cabc 5695 4cbd 1219 4a3d 3420 51bd
00000070: 1173 ebbc e458 603d a9d8 69bd 1147 81bd
00000080: 0217 47bd ea2a 79bd ffed b73d c4d0 9a3c
00000090: e309 7e3d 7093 953d b4af 4bbd 8076 40bc
000000a0: 852d 81bd 7af2 1bbd 6d66 91bd eca9 59bd
000000b0: 6045 a5bd 1330 44bd 6914 88bd a4b5 0c3d
000000c0: 4f1b 393c 050f b5bd 22cc 81bd 7fa7 463d
000000d0: 706d 053a 71d5 8c3d 7b73 a2bd 066e 14bd
000000e0: 278d abbd a301 233d b92c 813d ed7a dabb
000000f0: 43c5 1cbd be34 5139 270a 863d 29d3 963d
-0.02618834 0.081182115 0.030608533 0.015192018 0.046461377 -0.0041589886 -0.026751978 -0.041610196
0.012045387 0.019626535 -0.053556018 -0.062222674 -0.07325734 0.056284893 -0.08500171 0.0804636
-0.037852343 0.084206834 -0.07589087 -0.05968877 0.0680528 0.07863274 0.046772007 0.03134699
-0.024708446 -0.049947105 0.049340315 -0.051056102 -0.028741391 0.054772273 -0.05709139 -0.06312383
-0.048605926 -0.06083194 0.08980941 0.018898375 0.062021147 0.07303512 -0.04972811 -0.011747003
-0.0630751 -0.03807304 -0.07099614 -0.053140566 -0.08069873 -0.04789741 -0.06644518 0.034352913
0.011298015 -0.088407554 -0.06337763 0.04849958 0.0005089855 0.06876648 -0.079321824 -0.03623774
-0.08376532 0.039796483 0.06307358 -0.006667486 -0.03827406 0.00019951441 0.06544905 0.07364494

bn2.weight f4 [64]
00000000: bce5 7d3f ea7a 833f 5f78 7a3f 478a 823f
00000010: 8adb 873f 9fd7 843f 0a96 733f c1de 773f
00000020: f232 753f 5a00 813f e8a4 833f 5882 8a3f
00000030: c3cb 803f 5c55 8e3f 5f9d 7b3f 9ed7 753f
00000040: e822 7c3f 96c8 833f 68b0 843f 508e 813f
00000050: 0ad3 7e3f 7ff7 863f eb64 823f 7939 793f
00000060: 94fe 853f 1957 833f b63c 733f fc4f 873f
00000070: 4033 733f 76c1 763f d0f0 723f d886 803f
00000080: a092 813f 3911 803f 29bb 853f 535c 753f
00000090: 18bb 873f 9f41 803f 4469 763f a966 823f
000000a0: 180e 7b3f a0a4 863f 2c11 863f 6a2f 773f
000000b0: c612 7a3f f510 803f 5e26 763f a6ba 7b3f
000000c0: aea3 753f 046e 763f 1c53 783f 6313 7a3f
000000d0: eb87 803f e343 7b3f 76a5 873f 395a 7a3f
000000e0: a88f 773f 2958 833f fae5 733f e037 7d3f
000000f0: bfb9 783f ef25 753f a174 843f 7755 7f3f
0.9917867 1.0271885 0.9783992 1.0198449 1.0613873 1.0378302 0.95150816 0.9682427
0.9578086 1.0078232 1.02847 1.0821028 1.0062183 1.11198 0.98287004 0.9603213
0.9849076 1.0295589 1.0366335 1.0121555 0.9954077 1.054428 1.0187048 0.9735332
1.0468316 1.0260955 0.9501451 1.0571284 0.95000076 0.9638895 0.948987 1.0041151
1.0122871 1.0005256 1.0447742 0.95844 1.0603971 1.0020026 0.9625437 1.0187579
0.9806838 1.051899 1.047399 0.96556723 0.97684896 1.0005175 0.96152294 0.9833168
0.9595288 0.9626162 0.97001815 0.9768583 1.0041479 0.9815046 1.059737 0.9779392
0.9670358 1.0261279 0.9527279 0.98913383 0.97158426 0.9576101 1.0348092 0.99739784

bn2.bias f4 [64]
00000000: dca1 13bd 50d3 25bb fcda d2bc 8e40 75bd
00000010: a85d cabd 9f2e 94bd 00d7 7abd ddb6 81bd
00000020: f86d 15bd a430 09bd 748c c1bd 7be0 f1bc
00000030: f278 9fbd 3a1c 373d 6bec b1bd 4c6a 31bc
00000040: 8b08 6bbc ac79 0abd 596f d4bd 5f57 2a3d
00000050: f187 66bd ce31 8abd eb32 e43a 44af 80bd
00000060: 6697 d9bc 92b3 9ebd 179b 07be 33fe 8dbd
00000070: 4223 d9bb 41ac 09bd 2f0f 12be eb7a 7f3c
00000080: 10f9 1cbc fdcd 8e3c b0bd dcbd 8f1a 51bd
00000090: 9699 5dbd 96e2 683c 0d79 aebd 8b11 fcbb
000000a0: 8b38 93bd c93c 4abd 75bf fd3c 514d a7bd
000000b0: a0a5 85bb 7a60 80bd daa3 1cbd c116 f23b
000000c0: 5bde 66bd 274a 41bd 9f78 923c 913d b5ba
000000d0: 982d 723c 4cf4 22bd edc0 36bd f1e5 5b3c
000000e0: 2bf7 d7bc befc 92bd a7f4 c9bc ed6e 31bd
000000f0: 558f a6bc 6a0b a0bd 6006 03be 481f bcbd
-0.036043033 -0.0025302954 -0.025739186 -0.059876017 -0.09881145 -0.07235455 -0.061240196 -0.063337065
-0.036481827 -0.033493653 -0.094506174 -0.029525986 -0.0778674 0.044704653 -0.08687671 -0.010828566
-0.0143452985 -0.03380744 -0.103728004 0.04158723 -0.056281988 -0.06747781 0.0017410194 -0.06283429
-0.02656145 -0.07749094 -0.13242756 -0.0693325 -0.0066265175 -0.03361154 -0.14263605 0.015593271
-0.0095808655 0.017432207 -0.107783675 -0.05105072 -0.05410155 0.014214179 -0.08519182 -0.007692521
-0.07188519 -0.049374375 0.030975083 -0.08169044 -0.004078582 -0.062684014 -0.0382422 0.0073879664
-0.0563644 -0.047189858 0.017879782 -0.0013827552 0.014781378 -0.03978376 -0.044617582 0.0134215215
-0.026362976 -0.07177113 -0.024652792 -0.043318678 -0.020332018 -0.07814677 -0.127954 -0.09185654

bn2.running_mean f4 [64]
00000000: abf9 dd3e 7ed5 513f 353d 67bf b54f 0abf
00000010: 3f5f 26bf 9186 a2bf 4072 433f 9551 153e
00000020: 7f45 933e e8e6 973f 130f 94bf e78d 093e
00000030: 3692 803e 47fe 38be fe38 663f 8a0d 71bf
00000040: 2c57 0f3f 46cb 23bf 032d 94bf 0617 6abf
00000050: 1e0e d3bc 5174 2ebf 22a3 5cbf 0200 813f
00000060: 6399 5ebf 7c2e e0be 5552 62bf 5279 f6be
00000070: 716b 2c3f be82 883f aa71 d73e 30ac 6d3f
00000080: f744 803f 93a6 c8bf 9461 3fbf 7e99 7c3f
00000090: 9312 47bf f373 8bbe 1ba8 c73e 26d6 793e
000000a0: 310c f53e 5973 78bf d953 4dbf 4a43 cc3e
000000b0: a0f7 063f c4dd 563f 58bb 4e3e 6e54 a63f
000000c0: 98ea da3e cbb6 a2be bc90 a43c 6e26 a7bd
000000d0: 06ed 823e 22ff 053f a76b 91bf f0f8 093f
000000e0: 2e88 4a3f 8181 1dbf 62d0 56be 54fe 763e
000000f0: f89a aabe 45da 3f3f 470d 68bf 0399 e03d
0.43354544 0.8196639 -0.9032777 -0.54027873 -0.64989084 -1.2697316 0.76346207 0.14581902
0.2876396 1.1867342 -1.15671 0.13433038 0.2511155 -0.18065749 0.89930713 -0.94161284
0.5599239 -0.63982046 -1.1576236 -0.9144138 -0.025763568 -0.68146235 -0.8618642 1.0078127
-0.869528 -0.43785465 -0.8840688 -0.48139435 0.6735144 1.0664899 0.42078906 0.9284086
1.0021046 -1.5675834 -0.7475827 0.9867171 -0.77762717 -0.272369 0.38995442 0.24398097
0.47860864 -0.97051007 -0.80206066 0.39895087 0.52721596 0.8393214 0.20188653 1.2994516
0.42757106 -0.31780085 0.020088546 -0.08161627 0.2557146 0.52342427 -1.1360978 0.53895473
0.79114044 -0.6152573 -0.20977929 0.24120456 -0.33321357 0.7494243 -0.9064526 0.10966685

bn2.running_var f4 [64]
00000000: 838a 883f 54cb 903f 54e8 f13f 8e10 143f
00000010: af3a e13f 7585 fb3f ec3d 723f 02c6 303f
00000020: e459 473f 22d3 6c3f 61f0 993f 8ce5 843f
00000030: b46f d03e a335 873f 668b 813e 4c03 613f
00000040: a908 a03f 42bb 923f 3e69 113f ba96 de3f
00000050: 7f4e 133f 5ba0 bb3f 1bc2 743f 9e3b c63f
00000060: 5be7 373f 07ef 323f 2353 0c3f 0713 f03f
00000070: 4ccc a73f cf56 993f fab5 ba3e f389 df3e
00000080: 3ce8 413f dab4 de3f 8a0f a53f 5fe5 0d3f
00000090: cbe3 b63f 6755 203f f8a7 b13e 12fa 803f
000000a0: 6c2d 163f 248c 8d3f e1f5 363f 422d 183f
000000b0: b7ff 8b3f 0aba b83e 417f 1f3f 8f34 993f
000000c0: bdf4 ee3e 6e3a d73e 4011 523f 27bc be3f
000000d0: bb01 1d3f 4c3f 803f 3d43 903f df85 983f
000000e0: df9d 333f 78ff a33e a03e 0640 269b 553f
000000f0: 4038 3f3f cffc 1d3f 6960 a63f 1094 3c3f
1.066727 1.1312051 1.8899026 0.5783776 1.7596034 1.9650103 0.94625735 0.69052136
0.7787154 0.92509663 1.2026483 1.0382552 0.40710223 1.0563244 0.25301665 0.87895656
1.2502643 1.1463397 0.5680121 1.7389748 0.5754165 1.4658312 0.9560868 1.5486944
0.71837395 0.69895977 0.54814357 1.8755807 1.3109221 1.1979617 0.36466962 0.43659934
0.75744987 1.7398942 1.2895367 0.5542812 1.4288267 0.62630314 0.34698462 1.0076315
0.5866306 1.1058393 0.7146893 0.5944406 1.0937413 0.36079437 0.6230355 1.1969165
0.46671095 0.42036766 0.8205757 1.490117 0.61330765 1.0019317 1.127052 1.1915854
0.7016277 0.32030845 2.0975723 0.8343986 0.74695206 0.6171388 1.2998172 0.73663425

fc3.weight f4 [32, 64]
00000000: 4101 afbc 4903 efbc d52e 0fbd 8783 ae3c
00000010: 3cd6 08bd c712 92bd 8adf d7bd 029b 9bbc
00000020: 61e6 353c 54d9 9ebd a616 c73d 0104 aebd
00000030: 49a3 b8bd 1ed4 013e 53d0 92bd 25be be3d
00000040: 86f4 f9bc e32e c03d d497 8e3d 21cd 2bbe
00000050: 15e1 29bd 027c a3bd 7b2b 9d3d 6291 debb
00000060: 6054 4cbd d064 043e 13fa ac3d 87bf 5c3d
00000070: c4ca 753d aa13 babd bfe6 6f3d c240 50bd
00000080: 3da1 cc3d d420 f63d c19b 1e3e 13c3 a5bb
00000090: 4374 903d d7df 0cbe f435 4e3d 7d40 973d
000000a0: 9d4f 88bd 9ad3 953d ad41 ecbd 0cc2 ecbc
000000b0: 8946 febd 2fe8 2cbe 579d f5bd e7af bcbd
000000c0: e562 a3bd cd86 c53d 3320 22bc 3e5f d8bd
000000d0: bea2 a83d de0b 753d 34a2 c33d 0757 a23c
000000e0: 7975 59bd d90c 0e3e c303 ee3c 7709 303c
000000f0: e2f3 15be 7aca 8bbd b15b 363d 9cd8 23be
00000100: 5956 61bd c967 973c 5088 a33d beb4 a43d
00000110: fb9f fa3d 4444 c53c af78 75bd 4cef f83c
00000120: ba3a 2c3d 9dd0 c93c 5440 213e 4932 54bd
00000130: fa20 073d 799f b73d f349 d33c 4bb9 61bd
00000140: f5b9 493d 6dca 0dbd b072 d03d 244c b63c
00000150: aecf 9bbd cdc7 d63d d213 8c3d 79f4 893d
00000160: 6719 fa3d 17f1 61bd 7922 1f3e 054a aa3d
00000170: e51d 4fbd b229 d7bd 6674 b33c 0c4c 9bbb
00000180: 4fcb 1c3d 9a33 c13c 509b f83d f7a8 59bc
00000190: a047 78bd f836 2f3d a8e6 2fbd 09d5 08bd
000001a0: 019b b13b d615 033d 7b10 1ebe 835f 5bbc
000001b0: da2f 06be 0a13 debc 6b59 04bd 8908 afbc
000001c0: 52e1 933d 6faf c9bd a02c 2abd 6e60 f3bd
000001d0: 8c71 d4bb a93e a1bd d311 c83d cec3 7fbd
000001e0: d3a0 263c 7d73 3d3e f076 b13c 29bb e83d
000001f0: 7e65 f9bd 6746 1cbd b1dc e6bb 1072 3e3d
00000200: ac8f 9339 1166 fbbd 2c92 4b3c 2f75 023d
00000210: 0afd 38be 71a5 7cbd 0911 b83c a2fb 083d
00000220: 8408 bf3d 7bd9 a43d 0e34 23bd 1f05 b8bd
00000230: adf2 03bd 6845 66be 5203 283e 6b7f e4bd
00000240: 49b5 edbd 1b9b 8dbd 22a5 83bc c18b 6cbd
00000250: 4875 373d 43f9 09bd 5614 023e 428d 593c
00000260: 94f6 9439 f265 7bbd e4b8 88bb f7f6 83be
00000270: 20ff 92bc a88a 0c3d ecdb 68bc 62bb 2fbd
00000280: 490c af3c 9949 91bd be29 b5bd 225a 0dbd
00000290: 751a ed3c aacc 653b cb9b bbbc 0bc4 1f3e
000002a0: 470e e83c e3a1 00bd 73fd 943d 21ce a2bd
000002b0: fbbb 0b3d a474 e63d f0f5 20be d7a0 cb3d
000002c0: a92a 1c3d 6a59 46bc b050 90bd 479d ab3d
000002d0: 1039 3dbd 91d1 323d e2e7 3bbd 05d7 0dbd
000002e0: df21 b53d 957f d63d 76d5 173d 31c2 3c3e
000002f0: d879 263d 2eec 55bd 7a7d aabd db3e e7bd
00000300: 30ea c53d 0967 36bd 460d 1c3d e5bc 2fbe
00000310: c37f 04bb 3da6 32be fd5b 6e3d f958 893d
00000320: 787c f9bc d708 c1bd c147 cabd 575c 64bd
00000330: c22b 113d 8ce5 b03d 91cd 453d e557 bebd
00000340: 9428 61bd 10f2 d6bd 9515 8abd b9eb babd
00000350: 8204 99bd fb06 b5bd 5dd7 f6bd 15ac 083e
00000360: 4384 01be 4026 43bd 38dc a139 7f15 81bc
00000370: f2c5 283d 35f2 2f3e 69b9 07bd 9be9 b1bd
00000380: 6074 183e 7140 efbd aaba 2abe 66dd 46bd
00000390: 7e37 d1bc eb4c a2bd 0749 8cbd 77df db3d
000003a0: dee4 8dbb 13b7 663d bf2b 23be cd7f ba3d
000003b0: d301 a03d 4dc0 8ebd a7d0 85bc f954 4a3c
000003c0: bae4 75bd 5631 d6bd 0286 603d 62b5 a3bd
000003d0: d5ff 0f3e 7bca 763d e548 3e3d b54d da3d
000003e0: a4fc f7ba b0ce 2fbd 3726 a5bd 8a13 a73d
000003f0: 080f d63c 6917 89bd 05a7 95bd 56e1 82bc
-0.021362903 -0.029176371 -0.034956772 0.021302951 -0.033407435 -0.07132488 -0.105406836 -0.018994812
0.01110229 -0.07756296 0.09721117 -0.084968574 -0.09015519 0.12678573 -0.07168641 0.09313611
-0.030512106 0.09383943 0.06962553 -0.16777469 -0.04147442 -0.07982637 0.07674309 -0.0067922333
-0.049885154 0.12929082 0.08446135 0.053893592 0.060007825 -0.09085782 0.058569666 -0.050843008
0.09991691 0.1201798 0.15489103 -0.005058655 0.07053425 -0.13757263 0.050344422 0.07385347
-0.0665581 0.073157504 -0.11535964 -0.028901123 -0.12415797 -0.16885446 -0.11992901 -0.09213238
-0.07977847 0.09644852 -0.009895372 -0.10565041 0.082341656 0.05982577 0.09552422 0.019816888
-0.053090546 0.13872088 0.029054528 0.010744444 -0.14643815 -0.06825729 0.044521037 -0.16000599
-0.05501399 0.018482106 0.07984984 0.08042286 0.12237545 0.024080403 -0.059929546 0.030387543
0.042048194 0.024635607 0.15747195 -0.05180577 0.032990433 0.08965964 0.025792098 -0.05510835
0.049249608 -0.034616876 0.10178125 0.022253104 -0.07607971 0.10487328 0.06839718 0.067360826
0.12211876 -0.05516156 0.15540494 0.08314899 -0.05056562 -0.105059996 0.021906089 -0.00473929
0.038279828 0.023584176 0.121389985 -0.013284913 -0.060615182 0.04277703 -0.04294458 -0.03340629
0.0054200892 0.032003246 -0.15435974 -0.013389471 -0.13104191 -0.027108688 -0.032311838 -0.021366375
0.07220711 -0.098479144 -0.041546464 -0.11883627 -0.0064832624 -0.078732796 0.09769025 -0.062442593
0.010170179 0.18501087 0.02166316 0.11363823 -0.12177561 -0.03815308 -0.0070453514 0.046495497
0.0002814507 -0.12275327 0.012424987 0.031850036 -0.18065277 -0.061681215 0.02246906 0.0334431
0.09327796 0.080492936 -0.039844565 -0.08985352 -0.032213856 -0.22487414 0.16407517 -0.111571155
-0.11606843 -0.0691435 -0.016069952 -0.057750467 0.044789582 -0.03368498 0.1270307 0.013278307
0.00028412475 -0.06137652 -0.0041724313 -0.25774357 -0.017943919 0.03431192 -0.01421259 -0.04290331
0.021368163 -0.07094116 -0.08845852 -0.034509785 0.02894328 0.0035064616 -0.022901436 0.15602128
0.02832712 -0.031404387 0.07274904 -0.07949472 0.03411482 0.11252716 -0.15718818 0.09942787
0.03812662 -0.012106279 -0.0704664 0.08379608 -0.046196997 0.04365689 -0.045875438 -0.034628887
0.08844351 0.10473553 0.037068807 0.18433453 0.040643543 -0.05222719 -0.08324714 -0.112912856
0.09663808 -0.044531856 0.038098596 -0.17161901 -0.0020217753 -0.17446227 0.058193196 0.06706423
-0.03045486 -0.09425514 -0.09876967 -0.055752125 0.03544212 0.086375326 0.048291747 -0.09294108
-0.05497034 -0.104953885 -0.06742398 -0.09126992 -0.07471563 -0.08839222 -0.12052796 0.13346894
-0.1264811 -0.0476439 0.0003087239 -0.01575732 0.0412044 0.17182238 -0.033135805 -0.08687135
0.14888144 -0.11682213 -0.16672769 -0.048550986 -0.025539156 -0.07924827 -0.06849866 0.10735982
-0.0043302616 0.056326937 -0.15934657 0.09106407 0.07812848 -0.06970272 -0.016334845 0.012349361
-0.060032584 -0.10458629 0.0548153 -0.079935804 0.14062436 0.060251694 0.046456236 0.10659353
-0.0018919897 -0.042921722 -0.080639295 0.08158024 0.026130214 -0.06693918 -0.07307247 -0.01597659

fc3.bias f4 [32]
00000000: debf d73d 4157 7ebd d86e d0bd 22d4 ddbd
00000010: b6af b83d 3ad3 f8bd 6ad3 5cbd 2b7c f2bd
00000020: c11d c93d cb65 b6bd 953d 02bb a526 663d
00000030: 1396 b13d d739 78bd 7499 a73c 8bcb ecbd
00000040: c324 c2bb 6b6d c1bd 8e0a b8bd 1927 cd3c
00000050: cfb1 a53d 0cff b9bd a9aa 68bc b519 97bd
00000060: 7dbc f03d adc5 773d 7cd5 90bc 4ee5 ee3b
00000070: 72c8 e9bc c4b5 f13b fa58 52bd d1a2 013b
0.10534643 -0.06209493 -0.10177392 -0.10831477 0.09017889 -0.12149663 -0.053912558 -0.118400894
0.09820128 -0.08906134 -0.0019873132 0.056189198 0.086712025 -0.060602035 0.020458914 -0.1156226
-0.0059247925 -0.09444698 -0.08986388 0.025043057 0.08090555 -0.090818495 -0.014200845 -0.0737795
0.11754701 0.060491253 -0.017679922 0.007290519 -0.028537963 0.0073764045 -0.051354386 0.0019780884

bn3.weight f4 [32]
00000000: f294 6f3f fbdb 723f 17e8 963f 2e3f 853f
00000010: 18b7 953f 2d9e 6c3f 389b 813f 5d97 8c3f
00000020: 4563 6f3f ca89 923f 08bc 8d3f b306 723f
00000030: 335b 6e3f 881d 6f3f ee0e 883f ee88 933f
00000040: 4907 713f 466d 8b3f 5538 703f 3d76 723f
00000050: 0ee8 8d3f 59ff 8b3f 056b 753f 2aff 8d3f
00000060: f390 783f 7bd6 943f 2428 8f3f 7b20 793f
00000070: db97 863f 6724 743f 94cd 743f aa7a 773f
0.9358665 0.94866914 1.1789578 1.0409906 1.1696501 0.9242886 1.0125494 1.0983692
0.9351085 1.14483 1.1073008 0.9454147 0.9310791 0.93404436 1.0629556 1.1526163
0.9415174 1.0892723 0.93835956 0.9471167 1.1086442 1.0937301 0.95866424 1.1093495
0.97096175 1.1627954 1.1184125 0.97315186 1.0515093 0.95368046 0.9562619 0.96671546

bn3.bias f4 [32]
00000000: f064 95bd 7e62 89bd 3e7a 673e 006b ba3d
00000010: ce34 7b3e 37fa c4bd 990d 1abd 3ef7 793e
00000020: c010 8fbd 83c0 693e 7f69 da3d 8213 44bd
00000030: 88d7 dbbd 2462 c5bd 84c3 1d3e f834 503e
00000040: f819 a6bd 2c9c de3d e53e 8dbd ece0 a7bd
00000050: e9a5 293e 1516 283e c6fd 66bd 35d9 533e
00000060: eec8 e4bc 453e 483e 4bfb 2b3e e0a3 e9bc
00000070: 2d9d 293d 5f92 64bd e0d0 07bd 2301 38bd
-0.07294643 -0.06708239 0.22605225 0.0910244 0.24531862 -0.09618037 -0.037610624 0.24410722
-0.06985617 0.22827344 0.10664653 -0.047870167 -0.10734469 -0.096378595 0.15406615 0.20332706
-0.08110422 0.10869631 -0.06896762 -0.08197197 0.16567196 0.16414674 -0.05639436 0.20688327
-0.027927842 0.19555004 0.1679508 -0.028520525 0.04140966 -0.055803653 -0.033158183 -0.04492296

bn3.running_mean f4 [32]
00000000: c6ac 9abd e009 3d3e 907a bfbe e1c6 13bf
00000010: 5d54 c1be bab2 7abe e7b2 80be 75e3 5fbe
00000020: 5c99 52be df8a debe 346d 893c b708 6d3e
00000030: 5085 fbbc 6cf5 d03d 539d a5be 86dd d9be
00000040: 4275 87bd 7d70 9cbe 9620 87be 15f4 ab3e
00000050: 2463 c93e 16c8 41be 1997 57be a455 1bbf
00000060: acfc 093e cc74 363d 3634 81bd 6b83 6e3e
00000070: 2367 8b3e 58d9 273e 7ba3 1c3d a070 293e
-0.07552485 0.18460798 -0.37398195 -0.5772534 -0.37759677 -0.24482241 -0.25136492 -0.21864112
-0.20566314 -0.43465325 0.016775705 0.23147856 -0.030703217 0.102030605 -0.3234659 -0.4255182
-0.06614162 -0.30554572 -0.2639205 0.33584657 0.3933345 -0.18923983 -0.21053733 -0.6067755
0.13475293 0.04454498 -0.063087866 0.2329232 0.27227125 0.16391504 0.038241845 0.1654687

bn3.running_var f4 [32]
00000000: 881a 243f cf89 133f 01e7 973f 4349 413f
00000010: 7740 b63f 238f 1c3f 495d ca3e 6e48 563f
00000020: 267d 1c3f 4b83 bb3f 24a5 263f 6fa6 043f
00000030: e7fc f23e bca7 c73e ffae 8e3f 4fef 513f
00000040: 1a1f af3e 89e3 4b3f b830 7e3f 29ae 003f
00000050: 8bf8 b23f f7f5 973f 5d9b 1c3f c951 993f
00000060: ba2c 253f bf5a 853f 18c2 ba3f 9523 653f
00000070: 8de0 513f 7380 203f d58c 0e3f 74c4 443f
0.64102983 0.57632154 1.1867372 0.75502414 1.4238423 0.6115591 0.39524296 0.8370427
0.6112846 1.4649442 0.65095735 0.5181646 0.47458574 0.3899516 1.1147155 0.8200578
0.34203416 0.79644066 0.9929309 0.5026575 1.3982099 1.1871938 0.61174566 1.1978084
0.6452137 1.0418319 1.4590483 0.8950742 0.8198326 0.62696 0.5568364 0.76862264

fc4.weight f4 [1, 32]
00000000: 15ee be3d e79d 323d 761a 11be e278 4cbe
00000010: 1413 13be bffa c93d cdc1 923d 0d53 d1bd
00000020: 079a 873d e4a7 34be 1640 bfbd 0eac 6bbd
00000030: a208 d23d faa0 a63d 827c 78be 7bac 01be
00000040: 26e6 b73d bd82 ccbd 5f9c a23d 5a5d d13d
00000050: e3ad 2abe 5430 1fbe 233f 273d c624 2bbe
00000060: 7566 67bd 64d7 02be ed04 28be 34ea 943d
00000070: df7d afbd d5e4 603d 7a0c 01bd df20 3c3d
0.09322754 0.04360762 -0.1417025 -0.19967988 -0.14362746 0.09862279 0.07165871 -0.10220919
0.06621175 -0.1764217 -0.09338395 -0.05753713 0.10255553 0.081361726 -0.24266246 -0.12663452
0.08979444 -0.09985874 0.07939982 0.102228835 -0.16667895 -0.1554578 0.040831696 -0.16713247
-0.056494195 -0.12777478 -0.16408129 0.07271233 -0.0856893 0.05490573 -0.03150604 0.045929786
